FINAL APPLICATION/MyApplication/app/src/main/assets/model_tflite_version.tflite (tflite, 166116 bytes, 6 tensors)

sequential_65/dense_195/BiasAdd/ReadVariableOp/resource f4 [25]
000000 5e 10 34 3d ff 92 17 3e f2 8e e3 3d ae f6 1a 3d
       0.04396092 0.14802168 0.11111249 0.03783291
000010 3e 6b c1 3d a2 20 bc 3d 46 45 4c 3d 37 57 bc 3d
       0.09444283 0.09185912 0.04987075 0.091963224
000020 eb b7 84 3d b0 a3 c3 3d 5c 2c c7 3d 0a 09 9a 3d
       0.06480392 0.09552705 0.09725258 0.07521255
000030 05 ce 11 3e 4b ab d3 3d f3 0e 75 3d f2 42 a5 3d
       0.14238746 0.10335406 0.05982871 0.080694094
000040 8c f3 54 3d 55 df 99 3d e4 27 83 3d 19 24 9e 3d
       0.051990077 0.075133 0.06404093 0.07721729
000050 cf ac 63 3d 77 25 e1 3d 08 79 9c 3d ad df a3 3d
       0.055584725 0.10993474 0.076402724 0.08001647
000060 48 38 61 3d
       0.054985315

sequential_65/dense_196/BiasAdd/ReadVariableOp/resource f4 [25]
000000 a0 2c ba 3d 5d 38 de 3c 25 99 cc 3d d7 77 c7 bc
       0.09090543 0.027126485 0.099901475 -0.024349136
000010 b6 36 36 3d c4 1e 8d 3d 6d 73 90 3c 5d 73 32 3d
       0.04448577 0.06890634 0.017633164 0.04356705
000020 8b cc 8a 3b 7a 8a b3 3c 17 0b f5 3c 84 55 69 3d
       0.004235809 0.021916617 0.029912515 0.05696632
000030 9f 44 a7 3d 56 4e 6f 3d 04 45 aa 3d d8 3a 8f 3b
       0.08167385 0.058424316 0.08313945 0.0043710284
000040 a5 7e 20 3d cf f2 71 3c e7 0a 9b 3d 4f 17 20 3d
       0.039183278 0.014767363 0.07570439 0.03908473
000050 0e c6 de 3c e5 96 4e 3d 08 a7 3e 3d 0c 27 af 3d
       0.02719405 0.050436873 0.046546012 0.085523695
000060 0d 68 a6 3d
       0.08125315

sequential_65/dense_197/BiasAdd/ReadVariableOp/resource f4 [18]
000000 19 f1 13 bd 1d d2 34 3b 64 1f 00 bd 60 39 77 bd
       -0.0361186 0.0027591058 -0.031279936 -0.06035745
000010 61 57 12 bd fc 8e 82 b8 5b ee ca bc a5 05 9f bc
       -0.035727862 -6.225516e-05 -0.02477186 -0.019411871
000020 ba f9 9b 3c be db b0 bd 25 9e 4e 3b 02 c8 cf 3d
       0.019039977 -0.086356625 0.0031527367 0.1014557
000030 69 d0 92 3d b2 ba 84 bc 32 ad a9 bd d7 c0 5d bc
       0.07168657 -0.016202305 -0.082849875 -0.013534746
000040 8c a8 0e 3d 08 3b 6a 3d
       0.034828708 0.057185203

sequential_65/dense_195/MatMul f4 [25, 1598]
000000 e5 4d f0 3c 98 4d a2 bc a1 b3 29 bd 21 01 97 3c
       0.029334018 -0.01981239 -0.041431073 0.018433155
000010 7f 9e 06 bd c3 0e 20 3d cf a3 0b 3d ba 17 31 3d
       -0.032865997 0.039076578 0.034091767 0.043235518
000020 19 01 8e 3d ac b0 0d 3d 54 63 b4 ba 63 47 8c bb
       0.06933803 0.034592316 -0.0013762512 -0.004280971
000030 5c 08 75 bc 48 22 27 3b 90 16 ac bd 92 18 0b be
       -0.014955606 0.002550261 -0.08402741 -0.13583592
000040 14 a4 ce 3c c7 ef 61 3b a8 30 ba 3c de 0d 82 bd
       0.025224723 0.0034475194 0.02272828 -0.06350301
000050 17 6a fd 3d 61 eb 87 3d 1f c6 c8 3d d8 19 bd bd
       0.12373751 0.06636692 0.098034136 -0.09233445
000060 40 3d 7b 3c c6 f8 c4 3d 36 f8 82 3d 88 7b 6f 3d
       0.015334427 0.09617762 0.06394999 0.058467418
000070 62 54 e2 3c 5f 3c a2 bc 26 02 87 3d 95 1f 16 bd
       0.027628127 -0.019804178 0.06592207 -0.036651213
000080 4a 00 7e bd 7b 66 0f be 8e cf 04 39 c9 dc 37 3c
       -0.062011994 -0.14003937 0.00012665821 0.011222073
000090 95 bf 15 3d 11 42 93 3d 8d cf df bc 92 13 2b 3d
       0.03655966 0.071903355 -0.027320648 0.04176671
0000a0 e1 2c 89 bc 46 a3 90 3d 0f 36 fa 3d e0 0f 23 3b
       -0.016745033 0.07062392 0.12217342 0.0024881288
0000b0 a8 7f 9a bd f1 03 9c 3b 94 4c 14 bd 31 9a 21 3d
       -0.0754388 0.004761212 -0.036205843 0.03945369
0000c0 33 ab 54 3d a4 ec 90 bd c4 3f a6 3c a7 db 68 bd
       0.05192108 -0.070763856 0.020294078 -0.0568501
0000d0 9c 2b 4a bd b2 f5 20 bd 5f d3 ce bc 69 ff 59 bc
       -0.049357995 -0.039296813 -0.025247274 -0.013305523
0000e0 6b 4a 27 3c 09 bb a6 3d fc f6 f1 bd a9 8a 4a 3c
       0.010210614 0.08141143 -0.11814687 0.012362161
0000f0 da 32 48 3a e9 82 6a 3d c0 63 a5 3d 32 ac c3 bc
       0.0007636972 0.057253752 0.080756664 -0.02388582
000100 d5 2e 53 bd 7d 81 af bb 6e 1b ee bd b3 e2 23 3d
       -0.051558334 -0.0053560124 -0.116263255 0.04001112
000110 0a f4 2b bd 61 87 85 bc 34 a4 de 3c ad e7 c8 bb
       -0.04198078 -0.016299905 0.027177908 -0.0061311335
000120 7c ab 62 3d f6 0f bc 3c 72 9f 8b bd ef 99 8c bd
       0.05533932 0.02295683 -0.06817521 -0.06865298
000130 e9 3c 3c bd 4a 7d d3 3c 0b 79 c8 bb dc f9 d5 3c
       -0.045956526 0.025816578 -0.006117945 0.026120119
000140 67 00 8c bd 1e cb 07 3d 06 36 e0 3c 65 b1 14 3d
       -0.06836014 0.033152692 0.02736951 0.03630199
000150 6a f4 ca bc 61 7e 26 bc 44 7e 2d 3c 4d 2d 2c 3d
       -0.024774749 -0.010161967 0.010589186 0.04203539
000160 46 cf 28 bd b3 7a ae 3d 92 bf d2 3a 9b ad 22 3a
       -0.041213296 0.08519497 0.0016078821 0.0006205679
000170 b4 f7 8a 3d 66 1c 26 bc dd 4d f0 bd 43 d5 77 ba
       0.06785527 -0.010138607 -0.11733601 -0.0009454081
000180 42 43 a1 bb 26 c2 3d 3c a4 d2 62 3d 6c 0c 3d bc
       -0.004921348 0.011581933 0.055376664 -0.011538606
000190 8c 82 3f bd 3a b5 ff 3d 58 07 b0 bd 00 cc 88 3c
       -0.04675536 0.12485738 -0.08595151 0.016698837
0001a0 cc 3f d8 3c f5 5c 68 bd 7f 51 50 3d 9e 9d 98 bd
       0.026397608 -0.056729276 0.05085897 -0.07451938
0001b0 6e c1 04 be c3 40 c0 bb d6 b5 15 3a a1 a1 9b bd
       -0.12964413 -0.005867095 0.00057109946 -0.07599188
0001c0 d8 fd ac 3c d0 27 b4 3d 0c 0d 81 3d f4 e5 88 bd
       0.021117136 0.08796656 0.063013166 -0.06684485
0001d0 d7 b4 60 bd 27 b2 72 b9 68 c1 3d 3d 6f d2 8a bd
       -0.054859962 -0.00023145285 0.046327025 -0.06778418
0001e0 10 ca 67 3c 4f 7e de 3c d6 19 87 3d 6b 54 c9 3c
       0.014147297 0.027159838 0.06596725 0.024576386
0001f0 d2 4d 1d 3d bc 7f 1a 3e 5c 7d 3a 3c 71 45 e3 3b
       0.038404293 0.1508779 0.011382427 0.0069357683
000200 e9 83 0a be 2e 15 84 bb 82 99 48 3d 65 cd 76 3d
       -0.13526882 -0.004030845 0.04897452 0.060254473
000210 c1 61 27 bd 27 bd 9a bc a7 d2 fc 3c a5 5e 86 3d
       -0.04086471 -0.018889023 0.030862166 0.06561021
000220 3c 2b 3e be 64 62 3f 3d f2 c3 18 3e 95 2b 2a 3c
       -0.1857118 0.046724692 0.14918497 0.010386367
000230 42 1c 05 bd 84 79 12 bd 6e 8e 5d 3d 18 18 7a bd
       -0.032497652 -0.035760418 0.05409091 -0.061058134
000240 0d 1e 2b 3d a5 20 a2 bd 2b 4a 1f 3d 8e cd eb 3c
       0.041776706 -0.07916383 0.03888909 0.02878454
000250 b0 36 a0 3c 69 36 96 3d 25 a5 7c 3c e5 43 26 3d
       0.019557327 0.07334597 0.015420233 0.040592093
000260 b3 68 9b 3d ac cd 5b 3c e8 b0 13 be 02 6f 1f 3d
       0.07588329 0.013415735 -0.14422953 0.038924225
000270 95 36 0a bd 54 56 f9 3c 01 f7 89 bc 2e df f0 bc
       -0.03374346 0.030436672 -0.016841413 -0.029403295
000280 97 d4 36 3b fc 46 b2 bb 03 a1 1d 3c 97 d6 b2 bd
       0.002789771 -0.005440591 0.009620908 -0.08732336
000290 a6 92 4b 3d 12 bd 4a 3d bd 54 2e be 92 94 6d bd
       0.0497004 0.049496718 -0.17024513 -0.058003016
0002a0 47 e7 7f bd ab b1 18 bd 5d a5 3b 3c 5d dc a8 bc
       -0.062476423 -0.037278812 0.011453 -0.02061289
0002b0 a4 84 02 bd ad c7 8b bd 83 fa 1b 3e e8 c0 da bc
       -0.031864777 -0.068251945 0.15232281 -0.026703313
0002c0 e1 e3 63 bd 4d 2f de 3d b0 12 39 bd d6 18 17 bd
       -0.055637244 0.10848866 -0.045183837 -0.03688892
0002d0 64 7a 98 bd c0 c0 5c 3d 7c c0 25 3e fa 7e 7d bd
       -0.07445219 0.05389476 0.16186708 -0.061888672
0002e0 4f 12 a1 3a 69 4a 60 bc 82 7e 01 bd b2 03 2d 3d
       0.0012288782 -0.013689616 -0.031614788 0.042239852
0002f0 03 e9 88 3c e1 99 23 3d 20 f2 09 3d 15 ab 17 3d
       0.016712671 0.039941672 0.033678174 0.03702839
000300 df e6 fe 3c 0b f4 b7 bc b4 83 00 be 93 a2 6b bd
       0.031115947 -0.022455236 -0.12550241 -0.05752809
000310 35 d6 8f ba d0 63 1b bd 35 e0 80 3c 6c 79 8b 3c
       -0.0010973873 -0.037936985 0.01573191 0.017025672
000320 37 62 ba bd 13 65 26 3d 2f 3a bd bd 58 2f 89 3d
       -0.09100764 0.040623736 -0.09239613 0.06698483
000330 6f 43 f6 3a f7 2d 6a bc 61 4b a5 3b ef db 22 bd
       0.0018788407 -0.014293185 0.0050443863 -0.039760526
000340 7b c9 b7 3d 1f 94 63 3a 64 af 61 be e0 64 81 bd
       0.08973976 0.00086814346 -0.22039562 -0.063180685
000350 fc f4 85 3d eb 29 c6 3d 49 52 c6 3c a6 c5 cb bb
       0.06540868 0.09675964 0.024209158 -0.00621863
000360 f5 82 92 bd e7 d3 a5 3b cf 76 42 bc 23 35 b3 bd
       -0.07153884 0.005060661 -0.0118691465 -0.087503694
000370 0a e7 5d 3d 15 54 27 3c 12 e8 b0 3d 29 a2 78 3b
       0.054175414 0.010212918 0.08638014 0.0037938452
000380 df 1f 3c bd 14 aa 4b bd 97 a3 85 3d 2f 3c 2b bd
       -0.045928832 -0.049722746 0.06525343 -0.041805442
000390 46 f6 9c bd 2d 40 6a 3b 64 12 87 bc 0e ff 91 3d
       -0.076641604 0.0035743818 -0.016488262 0.07128726
0003a0 6e 20 b3 3d 69 c5 cb 3c c7 80 ee bc 84 3a 04 bd
       0.0874642 0.024874406 -0.02911414 -0.032282367
0003b0 97 a8 00 3d 77 7a af 3c b0 c4 48 3b a2 53 15 be
       0.03141078 0.0214207 0.0030634813 -0.14582685
0003c0 55 3d fb bc 25 9e ee 3d 45 0c cd bd 2f 9a ef 3c
       -0.030668894 0.116512574 -0.10012106 0.029248325
0003d0 49 d5 8c 3c f8 94 dd 3c 97 3e 5d 3d f8 45 b6 3c
       0.017191546 0.027048573 0.05401477 0.02225016
0003e0 21 0c 1b 3d 32 c0 60 bc 54 35 8e bd 7e 23 12 3d
       0.037853364 -0.013717698 -0.06943765 0.03567838
0003f0 4b e5 e4 3d 33 8e 68 bc 8a 32 7b 3d dd 0c 5b bd
       0.11176547 -0.014194059 0.061327495 -0.053479064

sequential_65/dense_196/MatMul f4 [25, 25]
000000 0f ee e4 3d b7 be 74 3d 3b 28 07 be 14 a9 b1 3e
       0.111782186 0.059752192 -0.1319894 0.3469931
000010 b4 8a 79 3d 49 4c d0 be df 02 af be 51 76 dd 3d
       0.060923293 -0.406832 -0.34181878 0.10813583
000020 16 1b df bd cc 47 01 bd 39 72 0e bf 4c a1 38 3e
       -0.10893838 -0.03156261 -0.5564304 0.1803028
000030 92 88 2b be 03 c3 33 3e 31 cd 8c 3d 09 86 33 3b
       -0.16751316 0.1755486 0.06875075 0.0027393124
000040 a5 5b 94 be 7a 8e 9d bc 73 6c db 3e ed 31 02 bd
       -0.2897617 -0.019232977 0.42856178 -0.031785894
000050 38 94 5f be 5b cf 4f 3c 10 26 2f 3e 0a dc c4 3e
       -0.21833885 0.012683715 0.17104363 0.38449126
000060 86 a3 92 3e bc 4d f5 be c2 83 4f 3e 4f 9d db 3e
       0.28640383 -0.4791087 0.20265105 0.42893454
000070 82 0a f0 3a 2d 26 92 3e 8a dd 31 3e e9 66 06 be
       0.0018313678 0.2854475 0.17369667 -0.13125195
000080 23 2a 64 3e 9b 96 52 be 19 c4 e7 bd 90 c2 47 be
       0.22281699 -0.20565264 -0.113166995 -0.19507813
000090 17 df d7 3e 82 a9 bd 3e 15 fa e9 bd bd a1 c7 3d
       0.42162392 0.37043387 -0.114246525 0.09747646
0000a0 a2 a2 0c be 8e 63 b8 be 00 4b 03 bf e7 a4 29 3d
       -0.13733914 -0.36013454 -0.51286316 0.04141703
0000b0 1d 0e 4d 3e 9a 73 78 be 44 f3 3f be 07 ef 8e 3e
       0.20024915 -0.24262848 -0.18745142 0.27916738
0000c0 b7 39 03 3e 68 69 b8 bd 7a 3e 3c 3e bb 01 98 3e
       0.12814985 -0.0900448 0.18383208 0.2968882
0000d0 ca 7c ca 3e ce 79 a6 be ac 7d b5 bd 10 16 bd 3d
       0.39548331 -0.32514805 -0.08861861 0.09232724
0000e0 2d ad e5 be f1 8c 91 3e e8 9a e4 3e e3 38 6f be
       -0.44858685 0.28427842 0.44649434 -0.23361544
0000f0 62 39 ad 3d 90 5c d4 3d 52 a3 de 3d e1 20 83 3c
       0.084582105 0.103692174 0.10870995 0.016006889
000100 ff 8e ce 3e bf 02 54 be a4 bd 27 3e a2 c3 d2 bd
       0.40343472 -0.20704173 0.16380936 -0.1029122
000110 5c 2f 82 be 35 14 c1 3e 14 0a ad bd 8d 61 5c bd
       -0.25426757 0.3771073 -0.08449188 -0.05380397
000120 db 33 21 be 31 ba 02 be 21 67 57 3e de db 0c 3e
       -0.15742438 -0.12766339 0.21035434 0.13755748
000130 99 9d 68 bd 0f 6c 89 3e 76 16 89 bd 85 34 81 3e
       -0.05679092 0.26840255 -0.06693737 0.25235382
000140 6f f6 c4 3e a9 2b 94 bc 07 30 9d be 06 32 73 bd
       0.38469264 -0.018087225 -0.30700704 -0.059373878
000150 ee c1 15 3e 63 08 75 be d9 92 ac 3c d5 8f 7a be
       0.1462476 -0.2392898 0.021066116 -0.2446893
000160 98 0a 2f bd f3 82 86 be 33 57 1e 3e 33 ea a7 bd
       -0.042734712 -0.2627178 0.15462951 -0.08198967
000170 be 39 6e be fb ce 01 be e5 73 c6 3e 3a 30 2b be
       -0.23264214 -0.12676613 0.38760296 -0.16717616
000180 96 16 73 be 2f aa 8d 3c 3d a8 12 be cf 72 63 be
       -0.23739085 0.017293064 -0.1432199 -0.22211765
000190 d5 af 55 3c b4 3b f9 3d 60 2f 77 be 54 1d cf 3e
       0.01304241 0.121695906 -0.24139166 0.40452063
0001a0 3f 9a 67 3e 75 de 2b be e5 2f e1 3e a1 2d 8b 3e
       0.22617434 -0.1678408 0.43981853 0.2718325
0001b0 95 11 51 be c6 d1 dc 3e 00 d4 c8 bd 84 88 9b be
       -0.20416863 0.43128794 -0.09806061 -0.3037759
0001c0 1d bb cb 3e f1 5a 01 3d 25 17 85 be 84 c3 80 be
       0.39791194 0.03158087 -0.2599422 -0.25149167
0001d0 85 74 42 be 95 dc 56 be 63 e1 27 be a0 f4 f9 be
       -0.18989761 -0.20982583 -0.16394572 -0.48819447
0001e0 5c be d8 3e a3 ac c4 3e d6 01 23 3d eb 00 be 3a
       0.42332733 0.3841296 0.039796673 0.0014496123
0001f0 ef cd ab 3e 19 ca a4 bb d8 89 3b 3e 9b 61 8d bd
       0.33555552 -0.0050289747 0.18314302 -0.069033824
000200 6c 93 9f bd 49 51 2e be b2 9e 94 3e 36 6b c5 be
       -0.0779179 -0.17023195 0.29027325 -0.38558358
000210 d2 f6 a3 3e 47 ce 9a be 7f 12 83 3e dd cf fd be
       0.32024246 -0.30235502 0.2560005 -0.4957265
000220 a8 06 cf 3e 0d 9a 68 bd ab a1 14 be ac 27 6e be
       0.40434766 -0.05678754 -0.14514796 -0.23257321
000230 e5 a3 ae 3d 75 59 9b 3e 96 30 20 be 04 bb e4 3c
       0.08527354 0.30341688 -0.15643534 0.027921207
000240 75 76 8a 3d ba d9 7a be 3b 9c 79 be e2 7f 09 be
       0.06760875 -0.24497119 -0.24376003 -0.1342769
000250 10 87 86 be 7e 14 bd bb 01 9b 60 be 70 4f 40 be
       -0.2627492 -0.005770265 -0.2193413 -0.18780303
000260 08 01 d0 3e 40 57 d8 be d0 9c fe 3e f9 1d 22 3d
       0.40625787 -0.42254066 0.49729013 0.039579365
000270 16 8e e4 3e b3 17 cf 3e 64 3c 87 3d 4a c1 88 3e
       0.44639653 0.4044777 0.066033155 0.26709968
000280 a1 b0 aa bd e1 58 bc 3e 9d dd 1a be 7b 71 40 3e
       -0.083344705 0.3678656 -0.15123601 0.1879329
000290 d0 8c a8 3d 3c 19 1c 38 a6 36 24 3e 11 0d 1e 3e
       0.08229983 3.72168e-05 0.16036472 0.15434672
0002a0 63 96 91 3c 72 53 36 be d4 83 40 be a0 87 88 3e
       0.017771905 -0.1780527 -0.18800288 0.26665974
0002b0 83 42 4f 3e 4d 22 63 3e 92 c3 ec be 10 18 90 be
       0.20240216 0.22181053 -0.46242958 -0.28143358
0002c0 55 07 a1 3e d4 66 56 3e d4 9d ce 3d ca 39 cd be
       0.31450906 0.20937663 0.10088697 -0.40083152
0002d0 6e d6 a4 bd b3 70 c0 bd cb 25 ef bd 22 eb 9a be
       -0.08048712 -0.09396496 -0.1167713 -0.30257517
0002e0 ad eb f2 be 63 f6 46 3e 9e 90 97 bc 99 85 bb 3d
       -0.4744543 0.19429927 -0.018501576 0.09156341
0002f0 9a 69 0e 3e 37 f5 80 be df 86 c0 3e 26 f8 66 3e
       0.13907471 -0.25187084 0.37602898 0.22555599
000300 f5 ca b6 3e 10 7c 3d 3e e5 90 92 ba e8 43 97 be
       0.3570172 0.18504357 -0.0011182098 -0.29543996
000310 26 0b 09 bd 4b 88 d8 be 75 e4 5c 3e f8 9f 97 3d
       -0.033457898 -0.42291483 0.21571524 0.074035585
000320 00 3c bd 3e 88 48 42 3e 6e 52 6b 3a 97 d6 4f be
       0.3695984 0.18972981 0.00089768216 -0.20296703
000330 38 37 98 3e 2e 02 61 bc 63 4e 7e bd 59 a5 f7 bd
       0.2972963 -0.01373343 -0.062086474 -0.120920844
000340 42 f4 d2 3e 6d 5e 0c 3e f1 7e f2 3d d4 51 21 be
       0.4120198 0.13707896 0.118406184 -0.15753871
000350 6d dd 65 be e4 57 16 3e 36 17 b4 3e 58 30 38 be
       -0.22447748 0.14681965 0.3517396 -0.17987192
000360 63 ab e9 bd a3 a3 38 bc b2 39 0f bf 34 1b c0 be
       -0.114096425 -0.011269483 -0.5594741 -0.37520754
000370 bc d6 96 bd 97 cd 08 3e 85 78 5d 3e 75 92 1a 3e
       -0.07365176 0.13359676 0.21628006 0.15094931
000380 f8 af 3e 3e a3 64 87 3d 5e 49 6d 3d 86 f1 b6 be
       0.18621814 0.06610992 0.057931297 -0.35731143
000390 aa 30 bf be d0 12 87 3e f8 a6 f9 be 9f 53 c2 bd
       -0.37341815 0.2638154 -0.487602 -0.09488606
0003a0 b9 ee a8 3d 6e 1c 03 be 7d 92 3e 3e a6 08 93 3e
       0.08248658 -0.12803814 0.18610568 0.28717536
0003b0 9e f5 0f 3e 24 0a e7 ba 61 13 89 3e e4 77 46 bd
       0.1405854 -0.0017626924 0.26772597 -0.04845418
0003c0 81 1c 4d bd 46 f3 60 3c 35 64 ec 3e 9d 1c f4 3e
       -0.05007601 0.013729876 0.46170202 0.4767808
0003d0 35 6b 90 3e dd 07 9d be 0d 3b 22 3e 75 53 4b 3e
       0.28206792 -0.30670062 0.15842839 0.19856055
0003e0 73 c8 a2 3d 6a 37 0d be 7d b2 d8 be ea 0f 8a be
       0.07948389 -0.1379067 -0.42323676 -0.26965266
0003f0 14 01 a7 3e ff 43 0e be 3a 9a 83 3e 24 0a bc 3e
       0.3261801 -0.13893126 0.25703603 0.36726487

sequential_65/dense_197/MatMul f4 [18, 25]
000000 a8 d4 cd 3d 21 e4 8a 3e 8c 23 0e bf d3 8f f8 3c
       0.100503266 0.27127174 -0.5552299 0.030342018
000010 7c dc 4d 3e e6 85 83 be b2 a0 82 3d fd 00 4f be
       0.2010364 -0.25688094 0.063783064 -0.20215221
000020 1a 4b 8d be 7b 5e 40 be 1a f5 de 3e 90 96 08 be
       -0.2759636 -0.18786041 0.43546373 -0.13338685
000030 e7 2a f8 bd 3c d7 92 be 94 9e 12 bf c8 09 93 3e
       -0.12117558 -0.28679836 -0.5727322 0.287184
000040 43 06 e0 be cd fb 71 3e ff 15 a3 bd 83 85 05 3d
       -0.43754777 0.2363121 -0.0796318 0.03259803
000050 50 15 c7 be d7 24 22 bf b0 c3 49 be a6 b0 39 3e
       -0.38883448 -0.63337463 -0.19703555 0.18133792
000060 45 64 1a 3e 65 00 d5 be 56 26 2f be 71 be 9a bd
       0.15077312 -0.41601864 -0.17104468 -0.07555855
000070 d5 d5 86 be bd e6 8e be 2d ad d8 be db d8 3f bd
       -0.26335016 -0.27910414 -0.42319623 -0.04683767
000080 ae 81 ae 3e 58 a8 87 be da 15 97 3e 9c ab a5 bd
       0.34083313 -0.26495624 0.2950886 -0.080893725
000090 68 8c 01 be da fa f3 be d3 08 4c be 85 ba 7b bd
       -0.12651217 -0.47652322 -0.19925241 -0.061457176
0000a0 96 76 0f bf 22 58 0b 3e 0f 3d 43 bf 40 b2 da 3e
       -0.5604032 0.13607839 -0.76265043 0.4271412
0000b0 ed 7b 2a 3e 8a cf 7c 3d ca d6 f2 3d a7 3e 38 bf
       0.16648836 0.061721362 0.11857374 -0.719706
0000c0 0a 50 e2 bd 27 ca aa 3b 8c 30 9d 3e 82 55 c9 3e
       -0.110504225 0.0052120867 0.307011 0.3932305
0000d0 65 5b 8c 3e 65 00 7c be 92 58 12 bf 70 fd 0a bf
       0.27413478 -0.24609526 -0.571664 -0.54292965
0000e0 25 22 c3 3e 03 b5 07 be d8 c3 c1 bd 5e 31 f5 3d
       0.38111988 -0.13252644 -0.09461182 0.11972307
0000f0 7a fc bf 3b 3e b5 55 3d 03 09 2c be ca 60 30 be
       0.005858955 0.0521748 -0.16800313 -0.17224422
000100 bf 0f d0 3d 9c 15 15 bf a2 41 85 3e ad 74 03 bf
       0.10159253 -0.582361 0.26026636 -0.5134991
000110 68 5b 42 be 9e 7e d5 be b5 58 e1 bd dc 18 d7 3c
       -0.18980181 -0.41698164 -0.11003248 0.026256971
000120 9c d0 63 be 29 ff d8 bd fe d1 4f bf a6 20 20 bf
       -0.22247547 -0.10595543 -0.811798 -0.6254982
000130 15 d4 85 3e ad 20 ae be b4 fb a3 3e 0a 40 11 bd
       0.26138368 -0.34009305 0.32027972 -0.035461463
000140 12 86 b7 be 76 9d 80 3e c1 65 f3 bd 57 08 01 bd
       -0.35844475 0.25120133 -0.118846424 -0.031502094
000150 28 08 8d be 42 a4 01 be 1b ef d1 be c0 39 a4 3e
       -0.27545285 -0.12660316 -0.41002735 0.3207531
000160 66 63 3b 3e 1a d1 2b 3e ce 95 5d 3e 8f 4f 30 be
       0.18299636 0.16778985 0.21639177 -0.17217849
000170 8d 44 0c bf 23 38 36 bf 6d a0 b3 be dd ce 0a 3e
       -0.547921 -0.7117941 -0.35083333 0.13555475
000180 5c cf b3 3e 0f 4b ee 3c ad ca a8 be 48 e5 bd bd
       0.3511914 0.029088525 -0.3296713 -0.092722476
000190 18 cf e6 be 40 14 c5 bc ea 78 91 bd ef e5 1a 3e
       -0.45079875 -0.024057508 -0.07103141 0.15126775
0001a0 85 ed 9e 3e 52 b2 10 bd bc 36 87 bd 89 d1 0f 3e
       0.31040588 -0.03532631 -0.06602237 0.14044775
0001b0 1f 94 8f be 2c 19 bb bd b0 1b 29 3d a9 e7 1f bf
       -0.28042695 -0.091356605 0.04128617 -0.6246286
0001c0 df 7e 1b bf e0 15 96 3c 6e 2e 1c bf 1b 37 14 3c
       -0.60740465 0.018320978 -0.61008346 0.009046341
0001d0 4f 4e 8f be c5 76 7d 3e cd 44 9d 3e 8a c5 09 3e
       -0.27989432 0.24752338 0.30716553 0.13454261
0001e0 5b 70 ab be a6 d4 c1 be f1 59 35 bc 96 e7 09 bf
       -0.33484158 -0.3785755 -0.011068807 -0.53869
0001f0 bb 0f 24 3e b0 ad 2d bf 0d cb ff be 19 53 a2 3e
       0.16021626 -0.6784315 -0.49959603 0.31704023
000200 bf 93 a1 3d 7e f5 b4 3d 13 22 94 be 6d 93 d8 3e
       0.078895085 0.088358864 -0.28932247 0.42299977
000210 67 7e 31 be 1a 36 e5 3e 8d 1b 4e be 0d 12 87 be
       -0.17333375 0.4476784 -0.20127697 -0.2638096
000220 3e b9 0e bd 11 ba 6d bd d8 c4 9e be ae ee 87 bd
       -0.03484463 -0.058038775 -0.31009555 -0.066373214
000230 1e c6 b3 be 4a a2 13 be aa a9 a4 3e ef d5 97 3e
       -0.3511209 -0.14417377 0.32160693 0.29655406
000240 d1 17 53 bd 67 1d e7 bc 7b 66 0b be b2 a9 16 3e
       -0.051536385 -0.028212262 -0.13613312 0.14713171
000250 72 e1 9f be a7 ac aa be 43 cd 67 be d1 be 32 bf
       -0.3122669 -0.33334848 -0.22636895 -0.6982241
000260 d7 17 ca be b2 06 14 be 85 16 91 be 6c ac c3 be
       -0.39471313 -0.14455679 -0.28337494 -0.38217485
000270 00 96 5b 3e ff 30 9b be 0c 6f bc 3e 0b a8 bb 3e
       0.21443939 -0.3031082 0.36803472 0.36651644
000280 6a 19 28 bf a0 3c e9 be 45 01 a4 3e c3 d2 cb bd
       -0.6566378 -0.45554066 0.3203222 -0.09952309
000290 ff 5d 81 3e ad 88 67 3e 77 e5 79 bd a9 19 35 be
       0.25267026 0.22610731 -0.06100985 -0.1768557
0002a0 ab fb 7d be 34 e0 a6 be 5a 50 c7 bd 86 03 a4 3e
       -0.24803035 -0.32592928 -0.09732123 0.32033938
0002b0 db 25 e4 be f1 56 15 3e 6f 48 92 3d 0c ab c2 be
       -0.4456013 0.14583947 0.07142722 -0.38021123
0002c0 84 20 2b be 39 3a ed be 69 10 c7 be 7f d0 bf be
       -0.16711622 -0.46333483 -0.38879707 -0.37463757
0002d0 4e 51 f4 be 34 f6 b9 be ff 08 bc be 1c 6d 06 bf
       -0.4771828 -0.3632065 -0.36725613 -0.5251024
0002e0 72 76 94 be fd a3 a7 be 5c 7d 7b bd 5f cf ae be
       -0.28996617 -0.327423 -0.06139885 -0.34142587
0002f0 a8 da c7 3e 75 c6 90 3d 33 90 3d be 58 ea a7 3e
       0.3903401 0.07069103 -0.18512039 0.32795978
000300 99 8a be 3d 73 80 6c bd 4e 47 24 be 66 0d 65 be
       0.09303779 -0.057739686 -0.16042826 -0.22368392
000310 21 67 83 3e 7c 62 91 3e e2 d0 bd be 55 4e a3 3e
       0.2566462 0.2839545 -0.37073427 0.318957
000320 5b 31 13 bd 96 f9 1e bf 92 17 59 3e b3 ff 3e 3e
       -0.03593574 -0.6209959 0.21200398 0.18652229
000330 ca e9 35 bf 27 9e 9b be ae 96 c1 3e 17 18 95 be
       -0.7105986 -0.30394098 0.37810272 -0.29119942
000340 1a 43 38 be 0a 27 3c 3e 46 ec 91 be 4a 0a 1f bf
       -0.17994347 0.18374267 -0.28500575 -0.62125075
000350 f1 a0 88 be f3 b4 75 3e d1 39 d9 be 2c d1 18 be
       -0.2668529 0.23994808 -0.42426923 -0.14923543
000360 0d fc 24 be e0 9e 21 3e 8f 67 d9 bd a0 27 77 3e
       -0.16111775 0.15783262 -0.10615455 0.2413621
000370 29 c4 66 3e ff f3 35 bf 49 f8 cf be fe d9 63 3e
       0.22535767 -0.71075433 -0.40619114 0.22251126
000380 d4 2f 6e 3e 60 54 c1 be 12 e9 26 3d 3a 47 0d be
       0.23260432 -0.37759686 0.040749617 -0.13796702
000390 34 69 7a 3d c4 e7 9b 3c 3a 82 2c be ca d7 94 be
       0.061135486 0.019031413 -0.16846552 -0.29070884
0003a0 f8 42 b1 bd 6a 43 85 3e 91 f2 b1 3e 47 77 52 3e
       -0.086553514 0.26027995 0.34755376 0.20553313
0003b0 8b bc 60 be e4 58 96 3e 87 41 01 be 5e 34 d7 be
       -0.21946923 0.29364693 -0.12622653 -0.4203214
0003c0 cb 18 a6 3e 94 e1 be 3e fc 25 32 3e 12 bc 48 3d
       0.3244079 0.37281477 0.17397302 0.049007483
0003d0 2f e1 1d be 77 50 99 3d f6 4a a7 3d 54 6c 89 be
       -0.15417932 0.074860506 0.081685945 -0.2684046
0003e0 09 58 c7 3e d2 5d f9 be ae 66 32 bf d2 16 a7 3e
       0.38934353 -0.48704392 -0.69687927 0.32634598
0003f0 32 fc 36 3e b0 6e 62 3e bd 42 2c bf 6d 37 6c 3e
       0.17869642 0.22112536 -0.67289335 0.23068018
